…
vector, requiring 784 ⋅ 392 = 307,720 parameters. The second layer learns the mapping between a 
392-dimensional vector and a 196-dimensional vector, requiring 392 ⋅ 196 = 77,028 parameters. 
In total, across six layers, the model architecture requires 410.5k parameters.
Chapter 4 ■ Applying Convolutional Structures to Tabular Data264
Listing 4-6. Parameter and shape summary for the architecture written in Listing 4-5
Model: "sequential"
_________________________________________________________________
Layer (type) Output Shape Param #
=================================================================
dense (Dense) (None, 392) 307720
_________________________________________________________________
dense_1 (Dense) (None, 196) 77028
_________________________________________________________________
dense_2 (Dense) (None, 98) 19306
_________________________________________________________________
dense_3 (Dense) (None, 49) 4851
_________________________________________________________________
dense_4 (Dense) (None, 24) 1200
_________________________________________________________________
dense_5 (Dense) (None, 12) 300
_________________________________________________________________
dense_6 (Dense) (None, 10) 130
=================================================================
Total params: 410,535
Trainable params: 410,535
Non-trainable params: 0
_________________________________________________________________
We can train the model with standard meta-parameters (Listing 4-7, Figure 4-3).
Listing 4-7. Compiling and fitting
model.compile(optimizer='adam',
 loss='sparse_categorical_crossentropy',
…
(compared with the previous network built for 28-by-28-pixel images) (Listing 4-9). The model size here 
resembles the parametrization of massive modern natural language processing applications that translate 
languages and generate text (you’ll read about these in the next two chapters) – a far cry from the intended 
application for simple image recognition.
Listing 4-9. Parameter and shape summary for the architecture written in Listing 4-8
Model: "sequential"
_________________________________________________________________
Layer (type) Output Shape Param #
=================================================================
dense (Dense) (None, 20000) 800020000
_________________________________________________________________
dense_1 (Dense) (None, 10000) 200010000
_________________________________________________________________
dense_2 (Dense) (None, 5000) 50005000
_________________________________________________________________
dense_3 (Dense) (None, 2500) 12502500
_________________________________________________________________
dense_4 (Dense) (None, 1250) 3126250
_________________________________________________________________
dense_5 (Dense) (None, 625) 781875
_________________________________________________________________
dense_6 (Dense) (None, 312) 195312
_________________________________________________________________
dense_7 (Dense) (None, 156) 48828
_________________________________________________________________
dense_8 (Dense) (None, 78) 12246
_________________________________________________________________
dense_9 (Dense) (None, 39) 3081
_________________________________________________________________
dense_10 (Dense) (None, 20) 800
_________________________________________________________________
dense_11 (Dense) (None, 10) 210
=================================================================
Chapter 4 ■ Applying Convolutional Structures to Tabular Data267
Total params: 1,066,706,102
Trainable params: 1,066,706,102
Non-trainable params: 0
_________________________________________________________________
The problem with using dense, feed-forward neural network architectures on image data, as one can 
tell from this experiment, is that they do not scale feasibly with image size. The difference between a 300-
…
 'Horizontal_Distance_To_Fire_Points', 'Wilderness_Area1', ... ,
 'Wilderness_Area4',
 'Soil_Type1', 'Soil_Type2', ... 'Soil_Type39', 'Soil_Type40',
 'Cover_Type'])
When we instantiate the previously discussed architecture on this dataset by customizing the number of 
input nodes to match the number of features in the dataset, we obtain the following model (Listing 4-56).
Listing 4-56. Layers and parameter summary of a 1D soft ordering CNN
Model: "sequential"
_________________________________________________________________
Layer (type) Output Shape Param #
=================================================================
dense (Dense) (None, 108) 5940
_________________________________________________________________
dense_1 (Dense) (None, 864) 94176
_________________________________________________________________
reshape (Reshape) (None, 54, 16) 0
_________________________________________________________________
conv1d (Conv1D) (None, 54, 16) 784
_________________________________________________________________
conv1d_1 (Conv1D) (None, 54, 16) 784
_________________________________________________________________
average_pooling1d (AveragePo (None, 27, 16) 0
_________________________________________________________________
conv1d_2 (Conv1D) (None, 27, 16) 784
_________________________________________________________________
conv1d_3 (Conv1D) (None, 27, 16) 784
_________________________________________________________________
Chapter 4 ■ Applying Convolutional Structures to Tabular Data351
average_pooling1d_1 (Average (None, 13, 16) 0
_________________________________________________________________
conv1d_4 (Conv1D) (None, 13, 16) 784
_________________________________________________________________
conv1d_5 (Conv1D) (None, 13, 16) 784
_________________________________________________________________
average_pooling1d_2 (Average (None, 6, 16) 0
_________________________________________________________________
conv1d_6 (Conv1D) (None, 6, 16) 784
_________________________________________________________________
conv1d_7 (Conv1D) (None, 6, 16) 784
_________________________________________________________________
average_pooling1d_3 (Average (None, 3, 16) 0
_________________________________________________________________
conv1d_8 (Conv1D) (None, 3, 16) 784
_________________________________________________________________
conv1d_9 (Conv1D) (None, 3, 16) 784
_________________________________________________________________
average_pooling1d_4 (Average (None, 1, 16) 0
_________________________________________________________________
flatten (Flatten) (None, 16) 0
_________________________________________________________________
dense_2 (Dense) (None, 16) 272
_________________________________________________________________
dense_3 (Dense) (None, 16) 272
_________________________________________________________________
dense_4 (Dense) (None, 7) 119
=================================================================
Total params: 108,619
Trainable params: 108,619
Non-trainable params: 0
_________________________________________________________________
The model can be trained with standard meta-parameters on the dataset (which has been loaded into 
X_train and y_train datasets) (Listing 4-57).
Listing 4-57. Compiling and fitting
model.compile(optimizer='adam',
…
