…
scope of this book. We are going to use a pretty standard six-layer CNN instead of 
our simple neural network.
We changed the model layers in our program to use the following six-level convo￾lutional layer model. You just have to love how easy Keras and TensorFlow makes 
it to dramatically change the neural network.626 BOOK 7 Building Robots with Python
You can see the complexity of our new network by looking at the model.summary()
results:
_________________________________________________________________
Layer (type) Output Shape Param #
=================================================================
conv2d (Conv2D) (None, 150, 150, 32) 896
_________________________________________________________________
max_pooling2d (MaxPooling2D) (None, 75, 75, 32) 0
_________________________________________________________________
conv2d_1 (Conv2D) (None, 75, 75, 32) 9248
_________________________________________________________________
max_pooling2d_1 (MaxPooling2 (None, 37, 37, 32) 0
_________________________________________________________________
conv2d_2 (Conv2D) (None, 37, 37, 64) 18496
_________________________________________________________________
max_pooling2d_2 (MaxPooling2 (None, 18, 18, 64) 0
_________________________________________________________________
dropout (Dropout) (None, 18, 18, 64) 0
_________________________________________________________________
flatten (Flatten) (None, 20736) 0
_________________________________________________________________
dense (Dense) (None, 64) 1327168
_________________________________________________________________
dropout_1 (Dropout) (None, 64) 0
_________________________________________________________________
dense_1 (Dense) (None, 2) 130
=================================================================
Total params: 1,355,938
Trainable params: 1,355,938
Non-trainable params: 0
CONVOLUTIONAL NEURAL NETWORKS
CNNs work by scanning images and analyzing them chunk by chunk, say at a 5x5 
window that moves by a stride length of two pixels each time until it spans the entire 
message. It’s like looking at an image using a microscope; you see only a small part of 
…
